…
2018-09-09 21:35:54.717283: I tensorflow/core/common_runtime/gpu/gpu_device.cc:1312] Adding visible gpu devices: 0
2018-09-09 21:35:55.484613: I tensorflow/core/common_runtime/gpu/gpu_device.cc:993] Creating TensorFlow device (/job:localhost/replica:0/task:0/device:GPU:0 with 5551 MB memory) -> physical GPU (device: 0, name: GeForce GTX 1060 6GB, pci bus id: 0000:0c:00.0, compute capability: 6.1)
_________________________________________________________________
Layer (type)                 Output Shape              Param #   
=================================================================
input_1 (InputLayer)         (None, 250, 250, 3)       0         
_________________________________________________________________
block1_conv1 (Conv2D)        (None, 250, 250, 64)      1792      
_________________________________________________________________
block1_conv2 (Conv2D)        (None, 250, 250, 64)      36928     
_________________________________________________________________
block1_pool (MaxPooling2D)   (None, 125, 125, 64)      0         
_________________________________________________________________
block2_conv1 (Conv2D)        (None, 125, 125, 128)     73856     
_________________________________________________________________
block2_conv2 (Conv2D)        (None, 125, 125, 128)     147584    
_________________________________________________________________
block2_pool (MaxPooling2D)   (None, 62, 62, 128)       0         
_________________________________________________________________
block3_conv1 (Conv2D)        (None, 62, 62, 256)       295168    
_________________________________________________________________
block3_conv2 (Conv2D)        (None, 62, 62, 256)       590080    
_________________________________________________________________
block3_conv3 (Conv2D)        (None, 62, 62, 256)       590080    
_________________________________________________________________
block3_pool (MaxPooling2D)   (None, 31, 31, 256)       0         
_________________________________________________________________
block4_conv1 (Conv2D)        (None, 31, 31, 512)       1180160   
_________________________________________________________________
block4_conv2 (Conv2D)        (None, 31, 31, 512)       2359808   
_________________________________________________________________
block4_conv3 (Conv2D)        (None, 31, 31, 512)       2359808   
_________________________________________________________________
block4_pool (MaxPooling2D)   (None, 15, 15, 512)       0         
_________________________________________________________________
block5_conv1 (Conv2D)        (None, 15, 15, 512)       2359808   
_________________________________________________________________
block5_conv2 (Conv2D)        (None, 15, 15, 512)       2359808   
_________________________________________________________________
block5_conv3 (Conv2D)        (None, 15, 15, 512)       2359808   
_________________________________________________________________
block5_pool (MaxPooling2D)   (None, 7, 7, 512)         0         
_________________________________________________________________
sequential_1 (Sequential)    (None, 120)               6453624   
=================================================================
Total params: 21,168,312
Trainable params: 8,813,432
Non-trainable params: 12,354,880
_________________________________________________________________
None
Epoch 1/70
15/15 [==============================] - 34s 2s/step - loss: 5.0596 - categorical_accuracy: 0.0063 - top20_acc: 0.1500 - val_loss: 4.7774 - val_categorical_accuracy: 0.0208 - val_top20_acc: 0.1562
…
